…
ion_mask=attention_mask, decoder_input_ids=decoder_input_ids, decoder_attention_mask=decoder_attention_mask, labels=labels)\n        logits = outputs.logits\n        logits = self.dropout(logits)\n        logits = self.classifier(logits)\n        return logits\n\n\nmodel_nm = \"HUPD/hupd-t5-small\"\nmodel = AutoModelForSeq2SeqLM.from_pretrained(model_nm)\ncustom_model = T5ForSequenceClassification(model, 1)\n# custom_model\n\nOSError: We couldn't connect to 'https://huggingface.co' to load this model, couldn't find it in the cached files and it looks like T5ForConditionalGeneration(\n  (shared): Embedding(32739, 512)\n  (encoder): T5Stack(\n    (embed_tokens): Embedding(32739, 512)\n    (block): ModuleList(\n      (0): T5Block(\n        (layer): ModuleList(\n          (0): T5LayerSelfAttention(\n            (SelfAttention): T5Attention(\n              (q): Linear(in_features=512, out_features=512, bias=False)\n              (k): Linear(in_features=512, out_features=512, bias=False)\n              (v): Linear(in_features=512, out_features=512, bias=False)\n              (o): Linear(in_features=512, out_features=512, bias=False)\n              (relative_attention_bias): Embedding(32, 8)\n            )\n            (layer_norm): T5LayerNorm()\n            (dropout): Dropout(p=0.1, inplace=False)\n          )\n          (1): T5LayerFF(\n            (DenseReluDense): T5DenseActDense(\n              (wi): Linear(in_features=512, out_features=2048, bias=False)\n              (wo): Linear(in_features=2048, out_features=512, bias=False)\n              (dropout): Dropout(p=0.1, inplace=False)\n              (act): ReLU()\n            )\n            (layer_norm): T5LayerNorm()\n            (dropout): Dropout(p=0.1, inplace=False)\n          )\n        )\n      )\n      (1): T5Block(\n        (layer): ModuleList(\n          (0): T5LayerSelfAttention(\n            (SelfAttention): T5Attention(\n              (q): Linear(in_features=512, out_features=512, bias=False)\n              (k): Linear(in_features=512, out_features=512, bias=False)\n              (v): Linear(in_features=512, out_features=512, bias=False)\n              (o): Linear(in_features=512, out_features=512, bias=False)\n            )\n            (layer_norm): T5LayerNorm()\n            (dropout): Dropout(p=0.1, inplace=False)\n          )\n          (1): T5LayerFF(\n            (DenseReluDense): T5DenseActDense(\n              (wi): Linear(in_features=512, out_features=2048, bias=False)\n              (wo): Linear(in_features=2048, out_features=512, bias=False)\n              (dropout): Dropout(p=0.1, inplace=False)\n              (act): ReLU()\n            )\n            (layer_norm): T5LayerNorm()\n            (dropout): Dropout(p=0.1, inplace=False)\n          )\n        )\n      )\n      (2): T5Block(\n        (layer): ModuleList(\n          (0): T5LayerSelfAttention(\n            (SelfAttention): T5Attention(\n              (q): Linear(in_features=512, out_features=512, bias=False)\n              (k): Linear(in_features=512, out_features=512, bias=False)\n              (v): Linear(in_features=512, out_features=512, bias=False)\n              (o): Linear(in_features=512, out_features=512, bias=False)\n            )\n            (layer_norm): T5LayerNorm()\n            (dropout): Dropout(p=0.1, inplace=False)\n          )\n          (1): T5LayerFF(\n            (DenseReluDense): T5DenseActDense(\n              (wi): Linear(in_features=512, out_features=2048, bias=False)\n              (wo): Linear(in_features=2048, out_features=512, bias=False)\n              (dropout): Dropout(p=0.1, inplace=False)\n              (act): ReLU()\n            )\n            (layer_norm): T5LayerNorm()\n            (dropout): Dropout(p=0.1, inplace=False)\n          )\n        )\n      )\n      (3): T5Block(\n        (layer): ModuleList(\n          (0): T5LayerSelfAttention(\n            (SelfAttention): T5Attention(\n              (q): Linear(in_features=512, out_features=512, bias=False)\n              (k): Linear(in_features=512, out_features=512, bias=False)\n              (v): Linear(in_features=512, out_features=512, bias=False)\n              (o): Linear(in_features=512, out_features=512, bias=False)\n            )\n            (layer_norm): T5LayerNorm()\n            (dropout): Dropout(p=0.1, inplace=False)\n          )\n          (1): T5LayerFF(\n            (DenseReluDense): T5DenseActDense(\n              (wi): Linear(in_features=512, out_features=2048, bias=False)\n              (wo): Linear(in_features=2048, out_features=512, bias=False)\n              (dropout): Dropout(p=0.1, inplace=False)\n              (act): ReLU()\n            )\n            (layer_norm): T5LayerNorm()\n            (dropout): Dropout(p=0.1, inplace=False)\n          )\n        )\n      )\n      (4): T5Block(\n        (layer): ModuleList(\n          (0): T5LayerSelfAttention(\n            (SelfAttention): T5Attention(\n              (q): Linear(in_features=512, out_features=512, bias=False)\n              (k): Linear(in_features=512, out_features=512, bias=False)\n              (v): Linear(in_features=512, out_features=512, bias=False)\n              (o): Linear(in_features=512, out_features=512, bias=False)\n            )\n            (layer_norm): T5LayerNorm()\n            (dropout): Dropout(p=0.1, inplace=False)\n          )\n          (1): T5LayerFF(\n            (DenseReluDense): T5DenseActDense(\n              (wi): Linear(in_features=512, out_features=2048, bias=False)\n              (wo): Linear(in_features=2048, out_features=512, bias=False)\n              (dropout): Dropout(p=0.1, inplace=False)\n              (act): ReLU()\n            )\n            (layer_norm): T5LayerNorm()\n            (dropout): Dropout(p=0.1, inplace=False)\n          )\n        )\n      )\n      (5): T5Block(\n        (layer): ModuleList(\n          (0): T5LayerSelfAttention(\n            (SelfAttention): T5Attention(\n              (q): Linear(in_features=512, out_features=512, bias=False)\n              (k): Linear(in_features=512, out_features=512, bias=False)\n              (v): Linear(in_features=512, out_features=512, bias=False)\n              (o): Linear(in_features=512, out_features=512, bias=False)\n            )\n            (layer_norm): T5LayerNorm()\n            (dropout): Dropout(p=0.1, inplace=False)\n          )\n          (1): T5LayerFF(\n            (DenseReluDense): T5DenseActDense(\n              (wi): Linear(in_features=512, out_features=2048, bias=False)\n              (wo): Linear(in_features=2048, out_features=512, bias=False)\n              (dropout): Dropout(p=0.1, inplace=False)\n              (act): ReLU()\n            )\n            (layer_norm): T5LayerNorm()\n            (dropout): Dropout(p=0.1, inplace=False)\n          )\n        )\n      )\n    )\n    (final_layer_norm): T5LayerNorm()\n    (dropout): Dropout(p=0.1, inplace=False)\n  )\n  (decoder): T5Stack(\n    (embed_tokens): Embedding(32739, 512)\n    (block): ModuleList(\n      (0): T5Block(\n        (layer): ModuleList(\n          (0): T5LayerSelfAttention(\n            (SelfAttention): T5Attention(\n              (q): Linear(in_features=512, out_features=512, bias=False)\n              (k): Linear(in_features=512, out_features=512, bias=False)\n              (v): Linear(in_features=512, out_features=512, bias=False)\n              (o): Linear(in_features=512, out_features=512, bias=False)\n              (relative_attention_bias): Embedding(32, 8)\n            )\n            (layer_norm): T5LayerNorm()\n            (dropout): Dropout(p=0.1, inplace=False)\n          )\n          (1): T5LayerCrossAttention(\n            (EncDecAttention): T5Attention(\n              (q): Linear(in_features=512, out_features=512, bias=False)\n              (k): Linear(in_features=512, out_features=512, bias=False)\n              (v): Linear(in_features=512, out_features=512, bias=False)\n              (o): Linear(in_features=512, out_features=512, bias=False)\n            )\n            (layer_norm): T5LayerNorm()\n            (dropout): Dropout(p=0.1, inplace=False)\n          )\n          (2): T5LayerFF(\n            (DenseReluDense): T5DenseActDense(\n              (wi): Linear(in_features=512, out_features=2048, bias=False)\n              (wo): Linear(in_features=2048, out_features=512, bias=False)\n              (dropout): Dropout(p=0.1, inplace=False)\n              (act): ReLU()\n            )\n            (layer_norm): T5LayerNorm()\n            (dropout): Dropout(p=0.1, inplace=False)\n          )\n        )\n      )\n      (1): T5Block(\n        (layer): ModuleList(\n          (0): T5LayerSelfAttention(\n            (SelfAttention): T5Attention(\n              (q): Linear(in_features=512, out_features=512, bias=False)\n              (k): Linear(in_features=512, out_features=512, bias=False)\n              (v): Linear(in_features=512, out_features=512, bias=False)\n              (o): Linear(in_features=512, out_features=512, bias=False)\n            )\n            (layer_norm): T5LayerNorm()\n            (dropout): Dropout(p=0.1, inplace=False)\n          )\n          (1): T5LayerCrossAttention(\n            (EncDecAttention): T5Attention(\n              (q): Linear(in_features=512, out_features=512, bias=False)\n              (k): Linear(in_features=512, out_features=512, bias=False)\n              (v): Linear(in_features=512, out_features=512, bias=False)\n              (o): Linear(in_features=512, out_features=512, bias=False)\n            )\n            (layer_norm): T5LayerNorm()\n            (dropout): Dropout(p=0.1, inplace=False)\n          )\n          (2): T5LayerFF(\n            (DenseReluDense): T5DenseActDense(\n              (wi): Linear(in_features=512, out_features=2048, bias=False)\n              (wo): Linear(in_features=2048, out_features=512, bias=False)\n              (dropout): Dropout(p=0.1, inplace=False)\n              (act): ReLU()\n            )\n            (layer_norm): T5LayerNorm()\n            (dropout): Dropout(p=0.1, inplace=False)\n          )\n        )\n      )\n      (2): T5Block(\n        (layer): ModuleList(\n          (0): T5LayerSelfAttention(\n            (SelfAttention): T5Attention(\n              (q): Linear(in_features=512, out_features=512, bias=False)\n              (k): Linear(in_features=512, out_features=512, bias=False)\n              (v): Linear(in_features=512, out_features=512, bias=False)\n              (o): Linear(in_features=512, out_features=512, bias=False)\n            )\n            (layer_norm): T5LayerNorm()\n            (dropout): Dropout(p=0.1, inplace=False)\n          )\n          (1): T5LayerCrossAttention(\n            (EncDecAttention): T5Attention(\n              (q): Linear(in_features=512, out_features=512, bias=False)\n              (k): Linear(in_features=512, out_features=512, bias=False)\n              (v): Linear(in_features=512, out_features=512, bias=False)\n              (o): Linear(in_features=512, out_features=512, bias=False)\n            )\n            (layer_norm): T5LayerNorm()\n            (dropout): Dropout(p=0.1, inplace=False)\n          )\n          (2): T5LayerFF(\n            (DenseReluDense): T5DenseActDense(\n              (wi): Linear(in_features=512, out_features=2048, bias=False)\n              (wo): Linear(in_features=2048, out_features=512, bias=False)\n              (dropout): Dropout(p=0.1, inplace=False)\n              (act): ReLU()\n            )\n            (layer_norm): T5LayerNorm()\n            (dropout): Dropout(p=0.1, inplace=False)\n          )\n        )\n      )\n      (3): T5Block(\n        (layer): ModuleList(\n          (0): T5LayerSelfAttention(\n            (SelfAttention): T5Attention(\n              (q): Linear(in_features=512, out_features=512, bias=False)\n              (k): Linear(in_features=512, out_features=512, bias=False)\n              (v): Linear(in_features=512, out_features=512, bias=False)\n              (o): Linear(in_features=512, out_features=512, bias=False)\n            )\n            (layer_norm): T5LayerNorm()\n            (dropout): Dropout(p=0.1, inplace=False)\n          )\n          (1): T5LayerCrossAttention(\n            (EncDecAttention): T5Attention(\n              (q): Linear(in_features=512, out_features=512, bias=False)\n              (k): Linear(in_features=512, out_features=512, bias=False)\n              (v): Linear(in_features=512, out_features=512, bias=False)\n              (o): Linear(in_features=512, out_features=512, bias=False)\n            )\n            (layer_norm): T5LayerNorm()\n            (dropout): Dropout(p=0.1, inplace=False)\n          )\n          (2): T5LayerFF(\n            (DenseReluDense): T5DenseActDense(\n              (wi): Linear(in_features=512, out_features=2048, bias=False)\n              (wo): Linear(in_features=2048, out_features=512, bias=False)\n              (dropout): Dropout(p=0.1, inplace=False)\n              (act): ReLU()\n            )\n            (layer_norm): T5LayerNorm()\n            (dropout): Dropout(p=0.1, inplace=False)\n          )\n        )\n      )\n      (4): T5Block(\n        (layer): ModuleList(\n          (0): T5LayerSelfAttention(\n            (SelfAttention): T5Attention(\n              (q): Linear(in_features=512, out_features=512, bias=False)\n              (k): Linear(in_features=512, out_features=512, bias=False)\n              (v): Linear(in_features=512, out_features=512, bias=False)\n              (o): Linear(in_features=512, out_features=512, bias=False)\n            )\n            (layer_norm): T5LayerNorm()\n            (dropout): Dropout(p=0.1, inplace=False)\n          )\n          (1): T5LayerCrossAttention(\n            (EncDecAttention): T5Attention(\n              (q): Linear(in_features=512, out_features=512, bias=False)\n              (k): Linear(in_features=512, out_features=512, bias=False)\n              (v): Linear(in_features=512, out_features=512, bias=False)\n              (o): Linear(in_features=512, out_features=512, bias=False)\n            )\n            (layer_norm): T5LayerNorm()\n            (dropout): Dropout(p=0.1, inplace=False)\n          )\n          (2): T5LayerFF(\n            (DenseReluDense): T5DenseActDense(\n              (wi): Linear(in_features=512, out_features=2048, bias=False)\n              (wo): Linear(in_features=2048, out_features=512, bias=False)\n              (dropout): Dropout(p=0.1, inplace=False)\n              (act): ReLU()\n            )\n            (layer_norm): T5LayerNorm()\n            (dropout): Dropout(p=0.1, inplace=False)\n          )\n        )\n      )\n      (5): T5Block(\n        (layer): ModuleList(\n          (0): T5LayerSelfAttention(\n            (SelfAttention): T5Attention(\n              (q): Linear(in_features=512, out_features=512, bias=False)\n              (k): Linear(in_features=512, out_features=512, bias=False)\n              (v): Linear(in_features=512, out_features=512, bias=False)\n              (o): Linear(in_features=512, out_features=512, bias=False)\n            )\n            (layer_norm): T5LayerNorm()\n            (dropout): Dropout(p=0.1, inplace=False)\n          )\n          (1): T5LayerCrossAttention(\n            (EncDecAttention): T5Attention(\n              (q): Linear(in_features=512, out_features=512, bias=False)\n              (k): Linear(in_features=512, out_features=512, bias=False)\n              (v): Linear(in_features=512, out_features=512, bias=False)\n              (o): Linear(in_features=512, out_features=512, bias=False)\n            )\n            (layer_norm): T5LayerNorm()\n            (dropout): Dropout(p=0.1, inplace=False)\n          )\n          (2): T5LayerFF(\n            (DenseReluDense): T5DenseActDense(\n              (wi): Linear(in_features=512, out_features=2048, bias=False)\n              (wo): Linear(in_features=2048, out_features=512, bias=False)\n              (dropout): Dropout(p=0.1, inplace=False)\n              (act): ReLU()\n            )\n            (layer_norm): T5LayerNorm()\n            (dropout): Dropout(p=0.1, inplace=False)\n          )\n        )\n      )\n    )\n    (final_layer_norm): T5LayerNorm()\n    (dropout): Dropout(p=0.1, inplace=False)\n  )\n  (lm_head): Linear(in_features=512, out_features=32739, bias=False)\n) is not the path to a directory containing a config.json file.\nCheckout your internet connection or see how to run the library in offline mode at 'https://huggingface.co/docs/transformers/installation#offline-mode'.\n\n\n\ntrainer = Trainer(custom_model, args, train_dataset=dds['train'], eval_dataset=dds['test'],\n                  tokenizer=tokz
…
